ml/earthxhack.tflite (tflite, 71552 bytes, 11 tensors)

StatefulPartitionedCall/sequential_6/dense_26/MatMul/ReadVariableOp/transpose f4 [64, 6]
000000 68 0e 97 bf 35 98 f5 3d f1 ad fe 3d 39 81 c0 3e
       -1.1801271 0.11991922 0.124355204 0.3759859
000010 4b 28 b7 bf a0 f6 ae 3c f9 90 1a be e0 aa ce bd
       -1.4309171 0.021357834 -0.15094365 -0.100911856
000020 48 7c 2c 3e 9f ea 85 be bc f5 73 3e dd e2 cf bd
       0.16844285 -0.26155564 0.23824209 -0.101506926
000030 ff ae 55 bf 8c 1e 9e 3d c5 38 52 3b 65 2a 93 3e
       -0.8347015 0.0772067 0.0032077294 0.28743282
000040 c3 23 73 bf f8 83 e0 3c 19 c2 3e 3e 5d 0e 12 3f
       -0.94976443 0.027406678 0.1862873 0.57053167
000050 36 3b 69 3e 66 18 83 be 04 94 9c 3e 09 ee 41 be
       0.22776493 -0.25604552 0.30581677 -0.1893846
000060 15 cc 4a c0 82 0c f7 be 5e d7 82 3e c7 45 17 3d
       -3.1687062 -0.4825173 0.25554937 0.03693178
000070 dc bd 1c c0 22 89 8e 3d ec 22 f5 bd bc a8 ac bf
       -2.449088 0.0695975 -0.119695514 -1.3488994
000080 23 0d ae be 8f f5 da be 8c 47 83 3e 6a cc 0d 3b
       -0.33994398 -0.4276547 0.25640523 0.0021636733
000090 d1 32 8c bf ad 9e cc bd 56 3e d5 3c b1 27 a2 3e
       -1.0953008 -0.099912025 0.0260307 0.31670907
0000a0 85 d2 94 bf 5e 4a 1d 3d 3a bf 1a c0 6d aa eb 3e
       -1.1626745 0.038401 -2.4179215 0.46028462
0000b0 54 31 18 3b f1 45 5d be 69 47 18 c0 cf ce 8b 3d
       0.0023222761 -0.21608712 -2.3793585 0.06826555
0000c0 62 53 9d bf 45 5a 9e bd e6 f0 e9 bc 56 2d 31 3f
       -1.2291071 -0.07732061 -0.028557252 0.692098
0000d0 c6 18 50 bf 03 91 7f 3d f0 41 32 bf 78 10 5a bf
       -0.812878 0.062394153 -0.6963186 -0.8518138
0000e0 fb a0 b6 3e d7 df 07 3d 8d 03 89 bf e7 a0 33 3e
       0.35669693 0.033172455 -1.0704209 0.17541848
0000f0 fe 78 5f bf 04 81 db bf ba 83 b9 3e 64 06 96 3e
       -0.87293994 -1.7148747 0.36233312 0.2930175
000100 47 e5 48 bf 8d 2c 0b be 6c 68 3e bf 9d 46 3e bf
       -0.7847485 -0.13591214 -0.74378085 -0.743265
000110 89 af 85 3e 61 1e 4e 3c ec d0 66 bf a2 f3 68 3d
       0.26110485 0.012580485 -0.9016254 0.05687297
000120 f3 cf 8b bf f5 a5 1a 3f c2 f8 af be 80 f7 a2 3e
       -1.0922836 0.6040948 -0.34369475 0.31829453
000130 5d 11 92 bd 2f e2 40 3d 54 70 78 bf 49 aa 16 bf
       -0.07132218 0.047090705 -0.970464 -0.58853585
000140 9d af 8d 3e 04 b0 d2 3d ec 85 8e bf 14 c5 51 3e
       0.27673045 0.102874786 -1.113462 0.20485336
000150 ca 2a 14 be f8 62 01 3d 8c 50 4f bd b0 61 d1 bd
       -0.14469448 0.031588525 -0.050613925 -0.102237105
000160 b9 53 8c be 90 b4 40 bd 0f e0 07 3e 07 66 7f 3d
       -0.27407625 -0.047047198 0.13269065 0.06235316
000170 6a 79 d3 3e 7b 92 0f 3f c9 93 25 bf 08 ce d7 bb
       0.4130357 0.56082886 -0.6467863 -0.00658584
000180 c4 45 39 3f 04 a4 bd 3e e2 51 95 3c 3f b7 b5 be
       0.7237208 0.37039196 0.018227521 -0.35491368
000190 4c 3f 31 be c5 49 49 bd 04 8d fb bf e0 fb 36 bf
       -0.17309302 -0.049142618 -1.965241 -0.7147808
0001a0 a2 bd 03 3e 2c b0 0f bd b6 94 0f c0 21 6f 01 3d
       0.12865308 -0.03508012 -2.2434516 0.03160012
0001b0 38 3a 03 c0 23 b3 3f 3e 9d b6 a7 3e 51 ad 09 3f
       -2.0504284 0.18720679 0.3275651 0.53780085
0001c0 16 13 fa bf 19 92 cd 3c 59 67 93 be 5d 3d 8a bf
       -1.9537075 0.025094079 -0.28789786 -1.0799977
0001d0 58 1a 1d 3d 58 6d a7 bc c9 a7 36 bf e2 24 ae 3d
       0.0383552 -0.020437881 -0.7134977 0.085031286
0001e0 70 ee 1e 3f b4 cb c2 3d 0c 9c c0 be 21 34 a1 be
       0.62082577 0.095115095 -0.37619054 -0.31485084
0001f0 5c cf 2e 3f 5b 0b 82 3d ed 65 aa be 5d 83 02 bf
       0.68285155 0.06349822 -0.33280888 -0.50981694
000200 92 9f ac 3e b8 5e 42 bc f8 08 09 bf df f3 74 bb
       0.33715492 -0.011863403 -0.5352931 -0.0037376804
000210 ae 12 45 bf 36 08 e9 be 0c 24 26 c0 c6 35 02 3f
       -0.7698163 -0.45514077 -2.5959501 0.508633
000220 52 6b 91 3d b6 8d b7 bc e6 f8 c6 3f e8 7f c8 be
       0.07100548 -0.02240644 1.5544708 -0.39160085
000230 9b b0 6f bd 68 90 58 be 2a 74 a4 3f 8e 13 74 3c
       -0.058518033 -0.21148837 1.284795 0.01489724
000240 47 02 5a 3f 79 af c9 be 37 6e 15 bd 09 67 79 3e
       0.85159725 -0.39391688 -0.036482062 0.24355711
000250 94 b9 d7 be 45 93 35 bc fe 86 ae bf 89 7d 82 3f
       -0.42133772 -0.011082475 -1.3634946 1.019456
000260 d5 98 d5 3e 9e 03 a5 3e 90 3e a4 bf d1 5d f5 3b
       0.41718164 0.32229322 -1.2831593 0.0074879904
000270 55 9d 01 3f 84 b9 7c bf 63 61 de be c5 34 1d bf
       0.50630695 -0.98720574 -0.43433675 -0.61408645
000280 cd 16 0b 3f 63 0c e2 3d e6 cc b7 bf 73 89 03 bf
       0.54331666 0.11037519 -1.4359405 -0.51381606
000290 3f 5f b1 3e fc 1d 9e bd b0 4e 8e bf 04 7d 03 3d
       0.3464298 -0.07720563 -1.1117764 0.032101646
0002a0 3c fc 64 bb 49 e3 b3 bf 4b a4 0c 3c 7c 06 8b 3f
       -0.0034940382 -1.4053737 0.008584092 1.0861354
0002b0 bc d2 c1 3e bd d1 ad bd ba 34 b7 bf 50 93 d6 3f
       0.3785609 -0.0848727 -1.4312966 1.6763706
0002c0 db cb c4 be 6e 1a 21 3e 25 3e 94 be 12 cc 49 3d
       -0.3843678 0.15732738 -0.28953663 0.049266882
0002d0 5f 75 98 3e bb 81 05 3e ca e6 3b 3e 61 c0 cd 3d
       0.29777047 0.1303777 0.18349758 0.10046459
0002e0 a0 7b eb 3e be 9c 89 be 9e 89 3d be c2 33 00 3e
       0.45992756 -0.26877397 -0.18509528 0.12519744
0002f0 00 86 c3 bc a2 c6 b0 bd 50 dc 86 3d f2 5c c0 bd
       -0.023867607 -0.08631636 0.0658499 -0.09392728
000300 9a 48 2a c0 cb 6b 93 3f 09 1b 29 3d c8 f8 84 bf
       -2.6606812 1.1517271 0.04128555 -1.0388422
000310 54 11 f1 bf 10 8e ce 3d 5d 01 6a 3e 0f 73 af be
       -1.8833413 0.1008569 0.22852083 -0.3426747
000320 86 77 08 3e e4 7d 8f bf 40 17 05 be de 13 2c 3d
       0.13326845 -1.1210294 -0.1299715 0.042011134
000330 55 54 97 be 4f d4 38 3f 1c 86 07 be 98 84 11 3f
       -0.29556528 0.7219896 -0.13234752 0.56842947
000340 64 b3 57 3e 62 f2 80 bd f3 43 31 3e bc fb 5f be
       0.21064526 -0.06296231 0.17311077 -0.21873373
000350 f1 63 d7 3e 47 3e 87 bb 62 47 1a bf d0 e4 50 3c
       0.42068437 -0.004127297 -0.6026517 0.012749866
000360 8f 17 93 3f d0 06 6e 3f b9 14 54 3e e8 f0 dc 3d
       1.1491565 0.92979145 0.2071103 0.10788137
000370 30 3b 0d 3f c1 30 4e be a0 4b a6 3c d3 dd 1a 3e
       0.5516844 -0.20135786 0.020299733 0.15123682
000380 3e f3 92 3e 44 b0 09 3f 78 76 33 bf 34 78 cb bb
       0.28701204 0.53784585 -0.70102644 -0.0062093977
000390 32 75 d5 bd 00 48 ae 3a 08 aa f6 3d 22 4b 03 be
       -0.10422744 0.0013296604 0.1204415 -0.1282163
0003a0 a6 14 18 3e fc cc 95 be f9 83 6e be 24 fe 6c bd
       0.14851627 -0.29257953 -0.23292531 -0.057859555
0003b0 43 a5 16 bd 71 90 52 be 9e 92 6b bf 2f b9 0e 3d
       -0.0367787 -0.20562913 -0.92020595 0.034844574
0003c0 f1 e4 1f 3f 2d 0c 4d 3f 28 1b d1 be b2 a3 61 3e
       0.6245871 0.80096704 -0.4084103 0.22035101
0003d0 21 5d 97 3f 3f b7 5c 3d 6e 23 b0 3f f4 77 a4 bf
       1.1825296 0.053885695 1.3760812 -1.2849107
0003e0 c7 03 90 be e6 74 ad be cb 8d 8e 3f 74 99 54 3d
       -0.28127882 -0.3387825 1.1137022 0.051904157
0003f0 9d 3a e6 bf c6 35 27 be 72 e7 46 3e 66 bd 59 3d
       -1.7986637 -0.16329107 0.19424227 0.05315914

StatefulPartitionedCall/sequential_6/dense_26/MatMul_bias f4 [64]
000000 49 00 ab bf 97 ed de bc 7d 12 97 bf 0e d8 a5 3e
       -1.3359462 -0.027212901 -1.1802517 0.323914
000010 aa 74 2d c0 e5 ab 02 3f 59 03 80 bf fd 38 14 c0
       -2.7102456 0.5104354 -1.0001022 -2.3159783
000020 de 43 8a bf 20 e4 4b bf dd f3 44 bf 6f c7 7c bf
       -1.0801961 -0.79644966 -0.76934606 -0.9874181
000030 69 86 f7 be 69 bb 61 bf 00 00 00 00 ad e4 18 bf
       -0.48344734 -0.8817659 0.0 -0.5972393
000040 38 3f 7d 3d 03 5d 04 c0 ff dc ef bf e3 66 65 bf
       0.06182787 -2.068177 -1.8739318 -0.8961012
000050 36 43 13 3f d1 53 18 bf d3 ce a3 3d f8 29 bc 3f
       0.5752443 -0.59502894 0.07998433 1.4700308
000060 c7 49 56 be 8f f0 aa bf a2 78 34 3f 74 2a 97 bf
       -0.20926581 -1.3354663 0.7049657 -1.1809831
000070 b9 5b 97 3e d4 4d 13 bf 1c 25 3c 3e 00 00 00 00
       0.29562166 -0.5754063 0.18373531 0.0
000080 f4 e3 0b c0 91 49 96 3e 8c c9 2b 3e aa 31 a9 be
       -2.1857882 0.29353002 0.16776103 -0.33045703
000090 a4 65 57 3f 57 23 05 bf 00 00 00 00 de eb 34 bf
       0.84139466 -0.5200705 0.0 -0.70672405
0000a0 17 df 44 3f ea a0 8a 3f c8 1c e1 bf 00 00 00 00
       0.7690291 1.0830357 -1.7586908 0.0
0000b0 50 ca bd be 66 53 c9 3e 9d 9f 9c 3b 61 bb 82 bf
       -0.37068415 0.3932144 0.0047797696 -1.0213434
0000c0 89 29 51 bf 2d 94 88 bb d9 2c 05 3f 2f ff 5a 3f
       -0.81704 -0.0041680546 0.5202156 0.8554563
0000d0 00 00 00 00 aa 60 b2 3e da 81 2c 3f 2f 86 f2 3e
       0.0 0.34839374 0.6738564 0.47368
0000e0 5a fa a7 bb 41 be 7c 3f 8e 69 0a 3f b6 83 21 bf
       -0.00512628 0.98727804 0.54067314 -0.630916
0000f0 28 82 98 3e 1f fe 2e be 0c aa 65 3f c1 97 35 3f
       0.297868 -0.17089127 0.89712596 0.70934683

StatefulPartitionedCall/sequential_6/dense_27/MatMul/ReadVariableOp/transpose f4 [64, 64]
000000 54 ca 76 3d 0b 4c 54 3e 8a 1b b0 bc 46 76 4a bd
       0.06025155 0.20732133 -0.021497507 -0.0494292
000010 91 b8 a8 3d af 02 55 be 06 98 b8 3d 1b cd 53 be
       0.08238328 -0.20801805 0.09013371 -0.2068371
000020 77 c7 fe bc c8 f5 3a be 24 fd 66 be f1 f4 25 3e
       -0.031100972 -0.1825782 -0.22557503 0.16206719
000030 3e af 20 be 54 32 38 bd 10 ee 73 bc 2d b1 57 bd
       -0.1569185 -0.04496987 -0.0148883015 -0.052659202
000040 13 37 1c be af c2 0b 3e 5e 32 bc 3d 6f 1f 4b 3e
       -0.15255384 0.13648485 0.09189294 0.1983621
000050 47 14 80 be 80 12 c8 3b 95 15 3b 3e 77 4d 2f be
       -0.2501547 0.006105721 0.18269952 -0.17119394
000060 64 33 4e be d8 ca 1e bd 73 a1 43 be 70 b1 67 3c
       -0.20136791 -0.038767666 -0.19104557 0.0141414255
000070 97 3a 74 bd ff ec 06 be 36 a0 01 3e 6c b9 51 be
       -0.059626188 -0.13176344 0.12658772 -0.20480889
000080 76 22 b1 bd 1c 22 2b bd 9c f8 63 be 99 24 b6 bd
       -0.08649151 -0.041780576 -0.22262806 -0.08893699
000090 80 a6 6a bc e8 85 49 3e a0 d9 7a bd 46 95 02 be
       -0.014321923 0.19679987 -0.0612427 -0.12752256
0000a0 d4 49 98 3c 07 8f 1a be e8 fd 64 bd ca bb ca 3d
       0.018589891 -0.15093623 -0.055906206 0.09899099
0000b0 ca c5 42 be 25 42 70 bd 79 dc eb 3d 77 2d 42 be
       -0.19020763 -0.05865683 0.11516661 -0.18962656
0000c0 31 fa 41 3e 1e af 9c bd 30 54 5b be ec c3 3e be
       0.18943097 -0.076505885 -0.21418834 -0.18629426
0000d0 47 82 2a 3e 68 e9 a9 bd b3 09 22 be 8e 1f 04 be
       0.1665126 -0.08296472 -0.15824012 -0.12902662
0000e0 24 f8 2d be 15 8b 31 3e f5 99 b8 3d 78 d9 d2 bd
       -0.1698919 0.17338212 0.0901374 -0.10295385
0000f0 81 1c 5e be 39 8d e5 3d fd 75 0d 3e ba 84 6d bd
       -0.21690561 0.11208577 0.1381454 -0.057987906
000100 56 77 b4 be 77 15 59 3d 83 3b 77 be 82 72 33 bf
       -0.35247296 0.052998986 -0.24143796 -0.700966
000110 ad d2 ea bd c7 3b a8 be 79 e2 76 be c5 5f d2 bd
       -0.114659645 -0.32858106 -0.2410983 -0.10272173
000120 37 64 29 bf 64 9b 3e bd 61 14 7c 3e 4b 27 15 bf
       -0.6616854 -0.04653491 0.24617149 -0.5826308
000130 8c 29 9f be 0b b9 ab be 35 be 2f 3e 33 73 c0 bd
       -0.31086385 -0.33539614 0.17162402 -0.093969725
000140 6f 69 65 bf e3 41 ee 3d d8 18 85 be 1a 5f 92 be
       -0.89614004 0.11633661 -0.25995517 -0.28588182
000150 02 66 94 3e 2c ea aa 3d e2 ad 0d be 49 5e cc 3e
       0.28984076 0.08345446 -0.13835862 0.39915684
000160 93 52 16 3e d9 11 d3 3d 09 42 87 bd 5a 4d 66 3d
       0.14679937 0.103061385 -0.06604392 0.056226112
000170 ae f6 bf 3e a7 fa 67 3e 4c 5f ba 3e 0f dd fa bd
       0.3749289 0.2265421 0.3640083 -0.12249195
000180 ea f6 7e bd 96 d3 25 3e cf 04 a3 3e 6c 78 84 bd
       -0.062247194 0.16193995 0.31839606 -0.06468281
000190 1c d8 49 3f cf f0 00 3c 0f 64 36 3e 87 8d 85 be
       0.7884538 0.007869913 0.17811607 -0.2608454
0001a0 36 5a fc bd 88 02 1b bd 5a dc c2 bd 11 19 29 3e
       -0.12321894 -0.03784421 -0.09514685 0.16513468
0001b0 3e e0 15 be 6e ae 3c 3e 05 c0 ce be 34 21 d3 be
       -0.14636323 0.18425915 -0.40380874 -0.4123627
0001c0 e0 fc 45 be 11 3a c2 bf 8f d9 e5 be a7 8d cf 3e
       -0.19334745 -1.517397 -0.44892547 0.4053776
0001d0 c0 37 64 bb ec b8 f5 bc 54 ec f6 3e 4c af a8 ba
       -0.0034823269 -0.029995404 0.4822718 -0.0012869625
0001e0 1d 57 3b be e3 74 a8 3e ac 74 28 bd 53 76 31 3d
       -0.1829495 0.32901677 -0.041126892 0.043325733
0001f0 26 24 92 3d d3 b4 97 3e d6 f8 96 3e 3c df 84 be
       0.07135801 0.29630145 0.29486722 -0.25951564
000200 5f cb c8 bd 47 6b 89 3d 7b 1c bc bc a5 d1 89 3d
       -0.09804415 0.06709915 -0.0229628 0.0672944
000210 bf fe 98 3d e9 51 13 bd 32 49 90 3d 31 01 a9 bc
       0.07470464 -0.035966787 0.07045211 -0.02063045
000220 63 1b 17 3e db 8e 36 3d 82 67 bc bb 63 58 ef bd
       0.14756541 0.04456983 -0.005749644 -0.1168678
000230 67 06 04 be 2f ca ee bd c0 bd 21 3c 6e 72 8f 3e
       -0.12893067 -0.11659657 0.0098719 0.2801699
000240 85 54 c5 be 5e 10 98 be 28 10 45 3e 2f 05 56 3e
       -0.38541046 -0.29699987 0.19244444 0.20900415
000250 b0 8f 4e 3e 86 4c 85 bd e5 92 e1 3e 2a 1a a0 bd
       0.20172 -0.06508736 0.44057384 -0.078174904
000260 7c af 08 be 6f 84 8a 3d 23 c2 04 3e 3a 5c d2 bd
       -0.13348192 0.06763541 0.12964682 -0.10271497
000270 a1 71 82 bf 1c d1 bb be c8 07 b9 be d0 7b 04 be
       -1.0190927 -0.36682975 -0.3613875 -0.12937856
000280 e7 a0 c2 be ea 37 ca bd 2a 4e 21 3f c9 70 aa bd
       -0.38013384 -0.09873946 0.63009894 -0.08322293
000290 ee a3 00 3f 02 5d b0 3d d2 2a 89 3d 64 1b 04 be
       0.50250137 0.0861149 0.066976205 -0.12901074
0002a0 18 73 01 3e 67 bb f7 3d 76 0a 2c be 14 8d 49 3d
       0.12641561 0.12096291 -0.16800866 0.04920681
0002b0 f8 7a 28 be 55 ea 46 3d 04 68 90 be c8 70 a1 3d
       -0.16453159 0.04856332 -0.28204358 0.078828394
0002c0 ee a7 4b 3e dd 25 0e 3f de 99 88 3e 9c 17 e5 bd
       0.19888279 0.55526525 0.2667989 -0.11186144
0002d0 d1 58 22 3e 96 f2 c9 be a2 a7 43 3f 32 40 aa bb
       0.15854193 -0.3944289 0.7642766 -0.005195641
0002e0 1a b9 7b bd 9b b7 da 3d 48 d9 d3 bc e0 f1 80 bf
       -0.061455823 0.10679551 -0.025860444 -1.0073814
0002f0 b3 9e 2b 3e ab 2f 31 be 9a 5c 05 3e ce 6a d5 bc
       0.16759758 -0.1730334 0.13023606 -0.026051905
000300 e0 de 9f 3d ff 74 43 3e 4d 17 9c bd 79 c2 ed bd
       0.07806182 0.19087599 -0.07621632 -0.11609358
000310 fe ef 46 be 1c 75 71 bd c5 4b ff 3b 0c 53 18 be
       -0.19427487 -0.058949575 0.007791015 -0.1487543
000320 46 b0 47 3e 57 ea 4a 3e a5 47 27 be 18 9b 3e 3e
       0.19500837 0.19815956 -0.16335924 0.18613851
000330 56 66 65 3e 94 9e 09 3e 87 ed 56 3e 03 f7 c4 bc
       0.2240232 0.13439399 0.20989047 -0.024043566
000340 cb 8c 58 3e aa 95 8f bc 9a d5 30 3d ff 7f 56 3d
       0.21147458 -0.01752742 0.043172456 0.05236816
000350 15 4a 80 bd ea d5 6b be 92 36 18 bf 13 f9 d3 bd
       -0.0626413 -0.2303082 -0.5945827 -0.103502415
000360 fb 21 22 3e c6 0d c4 3c 0b f8 2b be 35 dd 07 be
       0.15833275 0.023932349 -0.1679384 -0.13267978
000370 d7 e3 9d 3e 68 8c e3 bd 1c d6 7c 3e 14 07 27 3d
       0.3083789 -0.11110765 0.24691051 0.040778235
000380 9e f9 31 be 1e 40 37 3d 32 85 57 be 84 4d 48 be
       -0.17380378 0.04473888 -0.21046904 -0.1956082
000390 75 ed bd 3e c1 19 18 3e c0 d9 13 bb f1 b2 39 bd
       0.37095228 0.14853574 -0.002256021 -0.045336667
0003a0 bb 5e 5b bb 3b 3b 2c 3e 5b dc 0a 3e 1c 19 4c 3d
       -0.0033473212 0.1681947 0.13560621 0.049828634
0003b0 1a af 36 be 83 4b 58 3d 22 9c d2 3d 38 0f d7 bd
       -0.17840233 0.05280639 0.10283686 -0.105009496
0003c0 29 1a fd 3d 74 83 21 bf 2d 4f 0c be 22 34 f6 3d
       0.12358505 -0.63091207 -0.13702078 0.12021662
0003d0 cc 05 34 3d 71 66 03 bf 3c 30 54 bd 61 f9 5a be
       0.04395084 -0.5132819 -0.051803812 -0.21384193
0003e0 9f 6c 31 be 98 b7 80 3d b9 82 48 bf b2 57 89 3c
       -0.17326592 0.06285018 -0.78324467 0.01676545
0003f0 1a 1e 82 bc da 0d 1b 3e d2 ed 68 be eb cf 82 bd
       -0.015883494 0.15142003 -0.22746971 -0.063873135

StatefulPartitionedCall/sequential_6/dense_27/MatMul_bias f4 [64]
000000 b6 53 c1 bc 65 ab 29 3f f0 5c 72 3e ca c9 1d bf
       -0.023599487 0.6627715 0.23668265 -0.6163603
000010 97 59 60 bf a6 e0 22 3f cb 1e 7d 3d c8 54 da bf
       -0.87636703 0.63624036 0.061796945 -1.7057123
000020 7e bd 3a bf d8 9e 81 3e ef 75 d0 be 5f b7 3e bf
       -0.7294539 0.253165 -0.40714976 -0.7449855
000030 00 00 00 00 63 69 17 3d fe 93 b2 be b0 7f 43 bf
       0.0 0.03696574 -0.34878534 -0.7636671
000040 49 97 bd bf 14 02 1c 3f f4 48 5a bf 44 69 a3 bf
       -1.4811794 0.6094067 -0.8526757 -1.27665
000050 b4 51 2e 3e 51 33 44 bf ac a6 98 be 8f d6 29 bf
       0.17023355 -0.766408 -0.2981466 -0.66343015
000060 50 fd db be a5 4d 19 3f 98 12 cc 3e 2a 7a 5d bf
       -0.429667 0.598841 0.39857936 -0.8651453
000070 e0 80 79 bf 20 92 23 3f c5 cb 1a 40 f7 b4 88 bd
       -0.9746227 0.63894844 2.418687 -0.06675141
000080 f0 6b a7 be 38 e1 84 bf 12 9c 23 3e 3d b7 9c 3d
       -0.32699537 -1.0381231 0.15977505 0.076521374
000090 95 65 99 be cc cd 0a 3f 7e 77 34 bf aa 41 8e 3e
       -0.29960313 0.5422027 -0.7049483 0.27784473
0000a0 e8 6f 92 bf fb f9 53 3f 47 9b 30 bd a8 af 7a bd
       -1.1440401 0.82803315 -0.043116834 -0.061202675
0000b0 20 d0 62 bf 7f fd 25 3f 31 80 e7 3e 8b 16 02 bd
       -0.88598824 0.6483993 0.4521499 -0.03175978
0000c0 c5 ad 29 3d c8 b8 18 3d 32 4a f0 3e 10 53 9d 3f
       0.041425485 0.037285596 0.46931607 1.2290974
0000d0 16 0d c0 bf ac 9b 67 bf e0 25 2d 3f ca 7e 5c bf
       -1.5003994 -0.9047191 0.6763592 -0.86130965
0000e0 df 62 2b bf bc aa be bc 7b ef d4 be 73 30 df bc
       -0.6694774 -0.023274772 -0.4158896 -0.027244782
0000f0 dc 56 4f 3f c6 e7 04 3f b1 53 f7 3e e9 f3 c0 3e
       0.8099191 0.5191616 0.4830604 0.3768609

StatefulPartitionedCall/sequential_6/dense_28/MatMul/ReadVariableOp/transpose f4 [64, 64]
000000 0e 76 41 3e 21 90 a8 be b3 b6 d6 be 2e b0 48 bb
       0.1889269 -0.32922462 -0.41936263 -0.003062259
000010 2a 84 72 bd b6 d4 13 be 9d 49 2c be b5 6a c9 3c
       -0.059208073 -0.14436612 -0.16824956 0.024587015
000020 fc b2 15 3d 3f 7a 9e 3e b7 ab b8 bd 0a c7 07 3e
       0.036547646 0.3095264 -0.09017127 0.13259521
000030 20 91 37 bc b4 19 cb 3d c9 75 2c be 8e e5 9b 3c
       -0.011204034 0.09917012 -0.16841806 0.019030359
000040 02 f2 45 3d 62 b7 3d 3f 01 44 27 3e 5e 64 d4 bd
       0.0483265 0.74107945 0.16334535 -0.10370706
000050 32 31 74 be cd 3a 3d 3e 67 20 07 be 0b a6 4d be
       -0.23846892 0.18479462 -0.13195954 -0.20082872
000060 af 6f 57 bd f3 6d c9 be 9f 22 49 3e 9d ad ce bc
       -0.052596744 -0.39341697 0.19642113 -0.02522927
000070 b0 fb 7e 3d e8 0e 09 3e f4 6b 96 3f 51 85 a4 bb
       0.062251747 0.13384593 1.1751695 -0.0050207754
000080 05 8d 8a bd 3c 55 ca 3d 3c b1 d9 3d ee 43 b4 bd
       -0.067651786 0.098795384 0.10629508 -0.08802019
000090 4d 84 e6 3d 91 38 e7 3e 9d cc 2f 3e cb e2 e6 be
       0.11255703 0.45160344 0.17167898 -0.45094904
0000a0 6e 05 be 3c 4e f5 89 be aa 2c 36 be 59 58 1d be
       0.023195948 -0.26944965 -0.17790475 -0.15365733
0000b0 a1 57 e4 3d 28 17 0a bf 53 15 9e be 04 0a 52 be
       0.111495264 -0.53941584 -0.30875644 -0.20511633
0000c0 94 0e 76 3e 3a a7 19 be 2f 71 03 be 33 85 a2 be
       0.24028999 -0.15005198 -0.12836145 -0.31742248
0000d0 bc 5d 99 3c 78 64 46 bd b4 45 7a be f7 39 21 be
       0.018721454 -0.04843566 -0.24440652 -0.15744768
0000e0 fe d5 49 3e af f3 40 be ab 95 b2 bd c1 9b 6e 3c
       0.19710538 -0.18842958 -0.08719953 0.014563502
0000f0 78 c4 50 3e 4d a7 08 3f 9c b1 16 bf 4a eb 97 be
       0.20387447 0.5338028 -0.5886476 -0.296717
000100 3a 35 a7 bd dd ba 85 3e 8c 04 73 be a9 ac a2 be
       -0.08164449 0.26119128 -0.23732203 -0.31772354
000110 ff 92 0e 3e 77 49 a2 3c 0d 0b 29 be a4 3c b9 3e
       0.13923262 0.019810421 -0.16508122 0.36179078
000120 40 9e b6 be 36 f5 98 be ea dc 27 be b2 1b 77 be
       -0.3566761 -0.2987458 -0.16392866 -0.24131659
000130 14 8e 0b 3d 12 5f 46 3d 4b c1 29 bf a1 1b 05 3d
       0.034071043 0.04843051 -0.66310567 0.032497052
000140 80 a0 51 3d 9a ea c4 3e 82 f3 3a 3d 58 8e a2 3d
       0.051178455 0.38460237 0.045642383 0.07937306
000150 38 a8 88 3d 6c e7 4d 3e 0e dc 0d 3e 9f 50 1b be
       0.0667271 0.20107812 0.13853475 -0.15167473
000160 e4 03 16 be e8 61 52 3e 4b 0a 06 be 9e ce 32 be
       -0.14649922 0.20545161 -0.13089864 -0.1746163
000170 ee 95 96 3d ba 5b fa 3d 21 5e d0 3e 24 39 25 be
       0.073528156 0.12224527 0.40696815 -0.16135079
000180 7f 33 54 3d 0b 5e 6b be f1 f8 98 3e 09 e5 68 bd
       0.051806923 -0.22985093 0.29877427 -0.05685905
000190 d9 fb 0b 3e b2 93 9a 3d b1 df 71 be 1d 07 b5 3e
       0.13670291 0.07547702 -0.23620488 0.3535699
0001a0 f4 d1 75 3d 59 c8 73 3e 2d d1 1e 3e ad af 07 3e
       0.06001468 0.23806895 0.15509482 0.13250609
0001b0 c0 8c 76 bd e6 0d 4d 3c 54 ad c3 be 58 2c 98 3c
       -0.060192823 0.012515521 -0.38218176 0.018575832
0001c0 77 0b 8a 3e 0d 8c 25 be 86 02 d1 bd 15 09 06 3d
       0.26961872 -0.16166706 -0.102055594 0.032723505
0001d0 e1 07 05 3e ba 60 fd bd cd 8f e4 3d ab ef b2 bc
       0.12991287 -0.12371965 0.1116024 -0.021842798
0001e0 18 e0 c0 be da 64 0a 3e bc c8 25 bf ac 7d 5c bd
       -0.3767097 0.13515034 -0.6475942 -0.053830788
0001f0 8f 40 3a bf 32 fb 87 be a0 8e 1a 3e f0 03 c2 bb
       -0.7275476 -0.26558834 0.1509347 -0.0059208795
000200 58 3c 62 bd 6a 90 85 be 80 f9 ad bd 84 ea 2a 3e
       -0.05523333 -0.26086742 -0.08494854 0.16691023
000210 3f 16 e8 3c 42 a9 5e be 75 97 3d be 57 69 fc bd
       0.02833092 -0.21744254 -0.18514808 -0.123247795
000220 1f 22 bc 3d 05 c4 32 bd 56 98 a7 3d 87 e9 0b 3e
       0.091861956 -0.04364397 0.08183353 0.13663302
000230 14 5b 0c 3d 5b 15 f3 bc dc 96 0f 3e 87 40 ec 3d
       0.034266546 -0.029673269 0.14022392 0.11535745
000240 27 8b 89 be b2 ee 2d 3f e5 39 9c be 02 9c 61 bd
       -0.26863977 0.67942345 -0.3051292 -0.05508042
000250 ac ef b6 3d e3 35 4b be 4f 33 85 3d 44 7a 44 be
       0.089324325 -0.19844775 0.06503927 -0.19187266
000260 24 67 3a be cd 7a 0b be 8d 4d a2 3e 34 43 dd 3d
       -0.18203408 -0.13621064 0.31699792 0.108038336
000270 6d fd ac 3d b3 0f bb bb ec 36 d8 3f 5a e0 6b 3e
       0.08446775 -0.0057086586 1.6891761 0.23034802
000280 10 73 0e 3e a3 77 da bc 57 79 e3 3d 6d fa 0e be
       0.1391108 -0.026668375 0.11107128 -0.13962717
000290 75 24 3b bd e5 64 3e 3e 70 ff 90 3d 6d d1 16 bf
       -0.045689065 0.18593176 0.07079971 -0.5891331
0002a0 b4 55 88 bc 05 b0 6c be 98 bc 5d 3e f3 7c bf bc
       -0.016642429 -0.23114021 0.21653974 -0.02337501
0002b0 f9 3b 7c bc 6a 51 39 3c 8c a8 3c be c0 e8 5a 3c
       -0.015395158 0.0113109145 -0.1842367 0.013361156
0002c0 15 cc 13 bf eb 39 e0 bd c2 fa 99 be b3 5c b4 be
       -0.5773328 -0.10948547 -0.30074126 -0.35226974
0002d0 81 53 c2 bd f7 33 03 3d da 2b 30 3d 27 79 a2 be
       -0.09488583 0.03203198 0.04301057 -0.31733057
0002e0 5c 5f 46 3e 58 42 a7 3d 0b 8e ca 3c 4d 20 a8 be
       0.19372314 0.08166951 0.024725934 -0.32837144
0002f0 1f de d1 be 58 19 c9 3e ec 3a be 3c 74 f0 a6 bd
       -0.40989777 0.39277148 0.023221456 -0.081513315
000300 bf 67 8c 3d 13 33 78 be a1 4c 81 be 80 29 34 bc
       0.068557255 -0.24238233 -0.25253776 -0.0109962225
000310 43 f8 ce bd cb 27 2b 3e 65 c1 59 be fb 17 03 3f
       -0.10105946 0.16714399 -0.2126518 0.51208466
000320 bf f8 8f 3c 47 03 b1 3e fc 3c a7 3c 03 3f 20 3e
       0.017574666 0.34572813 0.020414822 0.15649037
000330 ab 2e 26 3e 09 e6 d7 3d 2a 87 50 be d0 94 3e bc
       0.1622874 0.105419226 -0.20364061 -0.011632159
000340 52 5c f9 3d 55 8e 1a 3f 23 5b 24 3e ab ed 60 be
       0.12175812 0.6037343 0.16050391 -0.21965663
000350 99 3d 32 be ba 04 52 be 97 ce 88 be 2d 05 3b be
       -0.1740631 -0.20509616 -0.26720116 -0.18263693
000360 b8 5d e7 bc f1 82 59 be 78 55 bd 3e 72 81 31 3e
       -0.02824293 -0.21241356 0.3697927 0.17334536
000370 ab 22 e0 bd 13 25 ed bd 7b 90 55 3e 4e e0 13 be
       -0.109441124 -0.11579337 0.20855896 -0.14441034
000380 96 75 0a bd 51 a9 f6 3d 13 94 2a be d2 79 38 bd
       -0.033803545 0.12044013 -0.16658048 -0.045038052
000390 da b5 83 3c 38 99 b1 bc ee 07 25 3d 15 36 2e be
       0.016077925 -0.021679506 0.040290765 -0.17012818
0003a0 e7 51 a3 3d 92 d3 d8 bd 07 e3 53 be 45 02 3c bd
       0.07974606 -0.10587229 -0.20692073 -0.045900602
0003b0 c0 cb a6 3c 0c 25 aa be f9 04 52 be dd a8 c5 bd
       0.020360827 -0.3323139 -0.2050971 -0.09651349
0003c0 fd 7f d5 3a cb d2 43 bd 18 18 de bd 43 73 14 be
       0.0016288754 -0.04780845 -0.10844439 -0.14497094
0003d0 2f b3 ee 3d bf 5d dd bd 28 33 58 bd 56 d3 31 be
       0.1165527 -0.10808896 -0.05278316 -0.17365775
0003e0 88 d4 a2 3d 61 a4 cb bb 09 1f b5 3c 4d 81 35 3e
       0.07950693 -0.006214664 0.022109525 0.17725106
0003f0 79 cf ee be f4 88 80 3e f1 1c c7 3d 21 2d ff bd
       -0.46642664 0.25104487 0.09722317 -0.124597795

StatefulPartitionedCall/sequential_6/dense_28/MatMul_bias f4 [64]
000000 85 e8 50 bf 53 81 06 3e 3e 6c c9 be a9 72 8d bf
       -0.81604797 0.13135271 -0.39340395 -1.1050617
000010 bb ab 46 bf 05 da 80 bf 02 56 9f bf 6f 7b fd bc
       -0.7760579 -1.0066534 -1.2448123 -0.030942647
000020 8e 4e 52 be df 1d ab bd 79 a8 9e 3e 46 74 ce 3e
       -0.20537779 -0.08355307 0.3098791 0.40323085
000030 7b e2 7f bd ae 38 1c be f0 52 2c bf 95 3e 87 bd
       -0.062471848 -0.15255997 -0.6731405 -0.066037335
000040 7f 18 82 bd bb 8a c7 bc ac 68 50 be dd d1 44 bf
       -0.063523285 -0.024358144 -0.20352429 -0.76882726
000050 d1 ab 85 bf e9 61 96 3e 9f 83 81 bd 53 94 42 bf
       -1.0443059 0.29371575 -0.06323933 -0.76007575
000060 62 fa ba be 91 15 a2 be e7 79 7f bd 89 93 65 bf
       -0.36519152 -0.3165708 -0.062372115 -0.89678246
000070 c2 b7 89 bd ee 4c 84 3c 00 f3 8b bf 7e 1d 61 be
       -0.06724502 0.016149964 -1.0933533 -0.21983907
000080 4d 3e c9 3a 99 53 38 be 75 d0 74 3e 82 35 ad 3c
       0.001535365 -0.1800064 0.23907645 0.021143679
000090 8c 83 83 bd f0 bf 1f bf f1 8d 8d be cf 98 a1 3b
       -0.06421575 -0.6240225 -0.27647355 0.0049315463
0000a0 47 7c 63 bf e7 ff 1e bd 40 38 c8 3e a1 8a 20 bf
       -0.8886151 -0.038818266 0.39105415 -0.6271153
0000b0 f4 dd 5b bf 9f 73 bb 3c 86 71 53 bf a4 0f 55 bf
       -0.8588555 0.02288228 -0.825951 -0.8322699
0000c0 b8 d7 3e bf 3d 84 4e bf 8b 2f 34 bd 2d 4f 67 bf
       -0.7454791 -0.8067053 -0.043990653 -0.9035519
0000d0 21 09 53 bf cf 6b aa bd 5b 5d 0e bf 7a e2 6b bf
       -0.82435805 -0.08321344 -0.556112 -0.9214245
0000e0 b9 1b 24 bf 8b f1 00 c0 23 c4 01 bd 58 ba 0a bf
       -0.641048 -2.0147426 -0.03168119 -0.5419059
0000f0 95 b3 01 bd 36 db 26 bf 7c 41 50 bf 61 18 b9 3e
       -0.031665403 -0.6517824 -0.8134992 0.36151412

StatefulPartitionedCall/sequential_6/dense_29/MatMul/ReadVariableOp/transpose f4 [64, 64]
000000 61 b3 7b 3e 79 a8 ba bd 28 49 bf 3e b8 47 41 be
       0.24580146 -0.09114165 0.373605 -0.18875015
000010 6c 6b 9a 3e 5a f3 76 3b 83 21 d7 3d a4 85 e1 3d
       0.3016008 0.003768167 0.10504439 0.11011818
000020 d3 da 90 be e8 ab 10 be 42 58 be bf b6 64 0e bc
       -0.2829195 -0.14128077 -1.4870684 -0.008691004
000030 4b 07 0f 3e 6b 99 da 3d 5f 5c 75 bd 67 fd db 3d
       0.13967626 0.106737934 -0.059902545 0.10741692
000040 c8 ae 08 bd 58 6a 1c be 80 ec dd be 10 fb ca 3d
       -0.03336981 -0.15274942 -0.43344498 0.099111676
000050 ef a8 1b 3e 2e 9e 0b bf 02 7d e7 bd a9 36 40 3f
       0.15201162 -0.5453824 -0.1130314 0.75083405
000060 51 10 10 bd 10 04 14 be 35 e1 2f 3d d8 5c 20 3d
       -0.03517181 -0.14454675 0.042939384 0.039151043
000070 08 f2 0c bd 37 c6 97 be 14 8f 37 be 51 85 84 3c
       -0.034410506 -0.29643413 -0.17925674 0.016176851
000080 24 5e 32 be 6c bf f2 3d a8 61 70 bf 90 3b e5 3e
       -0.17418724 0.11852917 -0.9389901 0.44772005
000090 08 03 cf 3c 1a d2 8c be 3c d5 65 3e 3b 5e c9 3e
       0.02527 -0.27504045 0.22444624 0.39329705
0000a0 64 a9 2b be 87 3f 67 bd 46 ca 13 3b 41 8e af 3e
       -0.16763836 -0.05645707 0.0022550984 0.3428822
0000b0 5b 64 3a be f9 4d a6 be e8 38 76 3e 3c 06 0a bb
       -0.18202345 -0.32481363 0.24045146 -0.0021060845
0000c0 30 36 8e be 59 d3 1d 3e 11 b1 90 3d 98 8c 04 3f
       -0.27775717 0.15412654 0.07065023 0.5177703
0000d0 a0 d9 12 3e 29 24 02 3e d6 91 a3 bd ac d4 a5 3e
       0.1434083 0.12709107 -0.079868004 0.32388818
0000e0 fa 19 8f be ce 5f 1e be 54 74 11 bd fa 22 d0 bd
       -0.27949506 -0.15466234 -0.03551133 -0.10162921
0000f0 5b ad 9e bd 12 4e 8e be 2d 5e 86 3c c1 d1 70 be
       -0.07747909 -0.27793938 0.016402328 -0.23517515
000100 31 c2 b5 bd db 93 a8 be 5a 5b 64 bd 54 13 9b 3d
       -0.0887493 -0.32925305 -0.055751182 0.07572046
000110 bd f0 ff 3d 53 ee f8 3d c8 11 8b bc 7f 67 13 be
       0.12497089 0.12154832 -0.016976252 -0.1439495
000120 cf b5 81 be 09 08 1e be 06 a3 26 be 32 e1 3e be
       -0.2533402 -0.15432753 -0.16273126 -0.18640593
000130 ba 46 ef 3d 19 81 1f be b7 e0 29 3d 47 da d6 3a
       0.11683412 -0.1557659 0.04147407 0.0016391956
000140 f5 65 10 3e 5e 74 e5 3d 06 d1 97 3d 69 a3 36 be
       0.14101394 0.11203836 0.07412915 -0.17835774
000150 08 bf 25 bd 62 65 ff bd 8c 6e c8 bd e8 6c 3d be
       -0.040465385 -0.12470509 -0.0978671 -0.18498576
000160 a0 41 0e 3c ac 1d 20 3e b8 4c 1d 3e 81 81 5d be
       0.008682638 0.15636319 0.15361297 -0.21631433
000170 88 61 8a bc 58 ac e9 bd 4d 4c 23 be 3c b6 21 3e
       -0.01689221 -0.11409825 -0.15947075 0.15792173
000180 3b f7 81 3d 88 c6 b7 3d 4a 76 e7 3d 8a 34 18 be
       0.063459836 0.08973414 0.11301859 -0.14863792
000190 e0 ed ef bd 79 d4 98 be 2a fc 53 be 33 6e 39 be
       -0.11715293 -0.29849604 -0.20701662 -0.18108444
0001a0 8c c0 9a 3d 18 d7 16 3c 00 fc af bd 86 46 39 3e
       0.07556257 0.009206556 -0.08592987 0.18093309
0001b0 5b 9d 9c bd 8c 23 16 be 44 50 bb 3d 93 ae 90 bd
       -0.07647201 -0.14661998 0.09146169 -0.070645474
0001c0 6b 21 14 3e 1e 68 16 be c8 13 57 be d4 82 4f be
       0.14465873 -0.14688155 -0.2100364 -0.2026475
0001d0 c9 6c 82 bc 00 29 95 3c 5d 86 b6 3d 10 47 1e 3e
       -0.015921013 0.018208027 0.089123465 0.15456796
0001e0 8e 97 74 be 26 2b 11 3e b6 de a5 3d 2f 97 42 be
       -0.23885939 0.14176616 0.08099119 -0.19002984
0001f0 94 c7 8e bc e8 99 27 be 99 2e 01 3d 9d f2 04 be
       -0.01742915 -0.16367304 0.03153858 -0.12983175
000200 32 30 b6 be ee 71 c3 be a0 93 89 bf 2e 04 39 be
       -0.35583645 -0.3817286 -1.0748177 -0.18068
000210 ad 41 1d bf 71 68 99 3e 2c cf 30 be bd 15 f9 bd
       -0.6142834 0.29962495 -0.1726653 -0.121623494
000220 93 83 6b 3d e1 38 96 3e 2b bf 66 bf a1 ea 19 3e
       0.057498526 0.2934027 -0.9013545 0.1503091
000230 32 87 69 be 5d 43 61 be 6b 77 49 3e 00 f2 04 bd
       -0.22805479 -0.21998353 0.1967446 -0.03245735
000240 b0 2d 60 bd 04 7c 8b be 92 b5 44 3d 50 da 13 3e
       -0.05473107 -0.27243054 0.04802472 0.14438748
000250 32 a8 30 3d fe 27 81 be 40 4b 44 be 4f 6b d1 be
       0.043129154 -0.25225824 -0.1916933 -0.40902182
000260 1f 83 80 3e 57 32 af bd 14 4d 11 be 72 01 b0 be
       0.25100037 -0.085545234 -0.14189559 -0.34376103
000270 08 f2 9b bc 3f 10 3d 3d 22 76 37 be 5e 59 13 3f
       -0.019036308 0.04615807 -0.17916158 0.5755824
000280 48 9a 2e 3e 44 f4 8e 3d 69 9c 17 be 94 77 56 be
       0.17051041 0.06980184 -0.1480576 -0.20944053
000290 30 37 d3 bd a5 76 1b 3e 73 3e 3d be 6c e6 18 bf
       -0.103132606 0.15181978 -0.18480854 -0.59726596
0002a0 12 e8 3b bd 8a db d6 bd 5e bd 55 be 35 35 39 bf
       -0.045875616 -0.104910925 -0.20873019 -0.7234681
0002b0 c6 2a be 3c 14 30 44 be 78 b1 d7 be 10 31 90 bc
       0.023213755 -0.19158965 -0.42127585 -0.01760152
0002c0 7f f9 7d bd bd dc 84 be 89 c3 4d bc c8 f5 8d be
       -0.062005516 -0.2594966 -0.012558826 -0.2772658
0002d0 ed 07 5c be 19 b6 49 bd 73 2d 69 be 97 0a 45 3c
       -0.21487398 -0.049245927 -0.22771244 0.012026451
0002e0 14 65 8a 3d 1f ac 61 be 80 87 27 be ac ee 62 be
       0.0675756 -0.22038315 -0.16360283 -0.22161359
0002f0 55 b6 97 3d a9 a2 62 3e ee c1 71 3c 89 fa 50 bf
       0.07407824 0.22132362 0.014755709 -0.81632286
000300 6d 06 37 bf 50 a2 f6 be 83 ae a5 bf b8 47 0c bf
       -0.7149418 -0.4817071 -1.2943882 -0.54796934
000310 d9 27 26 bf da 38 fb 3d ae a7 79 3e 14 71 0c 3d
       -0.6490455 0.12266703 0.24380371 0.034287527
000320 93 d9 4f 3e 3e 3e 78 3e 85 4c a4 be 75 63 76 bd
       0.20297842 0.24242494 -0.3208963 -0.060153443
000330 1f d9 35 3e 56 7d cd 3d 07 22 d6 3e 6f 50 37 be
       0.17758606 0.100336716 0.41822836 -0.17901777
000340 77 7a ef 3d 31 18 a4 bd 98 71 b1 be be a4 a9 bd
       0.1169328 -0.08012427 -0.34656978 -0.08283375
000350 18 c9 1d 3e 95 70 ac bc 3e 9b 4d 3d d2 a7 d2 be
       0.15408742 -0.021049777 0.05019688 -0.41143662
000360 34 ab c2 3d 1d 86 27 bd 92 a1 58 3d 43 e3 d1 be
       0.09505311 -0.040899385 0.05288846 -0.409937
000370 41 bf 11 3e 94 5d b4 be 3e 24 67 be 5d f2 04 3d
       0.14233114 -0.35227644 -0.22572419 0.032457698
000380 86 0f 46 3d 33 88 85 3e d8 d7 bd 3d 02 a5 04 be
       0.048354648 0.26080474 0.092696846 -0.1295357
000390 16 3f d7 3d 7b 2f 85 3e da f7 88 3d dc 22 1a bf
       0.105100796 0.26012787 0.06687899 -0.6020944
0003a0 bf 54 79 3e ca 23 33 bd d6 90 8b 3e 7f 4c 97 bf
       0.24348734 -0.043735303 0.2725894 -1.182022
0003b0 f6 00 54 be e1 32 08 be fc 0a c3 be e2 59 0d be
       -0.20703492 -0.13300659 -0.38094318 -0.13803819
0003c0 d2 0b 3f 3e 27 66 40 be 25 07 38 bd b9 a1 c1 be
       0.18656853 -0.18788968 -0.04492869 -0.37818697
0003d0 38 86 74 be 17 6b 54 bd 1d 5d 68 3e 73 47 25 be
       -0.23879325 -0.05185994 0.2269177 -0.16140537
0003e0 e3 ef 6e 3e 16 7c c6 be 01 9f 1d 3e b3 00 90 3d
       0.23333697 -0.38766545 0.15392686 0.07031383
0003f0 17 b4 f5 3c 94 90 b2 bd 0d ad 53 bd 69 e0 31 be
       0.0299931 -0.08718982 -0.051678706 -0.17370762

StatefulPartitionedCall/sequential_6/dense_29/MatMul_bias f4 [64]
000000 3a 17 59 bf 28 83 2d be b4 f8 de 3e bf 57 52 3f
       -0.84801066 -0.16944563 0.4354912 0.8216514
000010 0f 26 3c bd 8f be 7b bf 31 d4 50 bf 27 43 5c 3e
       -0.045934733 -0.98337644 -0.8157378 0.21509992
000020 4e e3 6e bc ff de 04 bf 63 5d 04 3d ad c2 53 bf
       -0.014580561 -0.51902765 0.032315623 -0.82718927
000030 bf 39 c7 be 6b 68 30 3e 1e e8 4f 3f 0c ee 09 bf
       -0.38911244 0.17227332 0.8121356 -0.53878856
000040 d0 be f3 be 56 b4 41 bf 99 c6 b6 bd 3f 73 fe be
       -0.47606516 -0.75665796 -0.08924598 -0.496973
000050 95 b0 ed be 88 db 07 3e a0 f3 fd be ea 51 8b be
       -0.46423784 0.13267338 -0.49599934 -0.27210933
000060 7e 0b fe 39 2a 03 1e bf 28 e6 30 bf be ad a9 be
       0.00048455218 -0.6172358 -0.6910119 -0.33140367
000070 ad 95 48 3e 2b 26 9a bb 44 23 02 bf a9 03 c5 be
       0.19588347 -0.004704257 -0.5083506 -0.38479355
000080 c7 c2 05 bf 7b 06 09 bd 44 54 16 3e a3 a5 ac be
       -0.5225033 -0.033453446 0.14680582 -0.3372012
000090 25 40 2f bf 6a 71 43 bf 6a 33 13 3c a8 01 71 bf
       -0.6845725 -0.7634493 0.008984426 -0.9414315
0000a0 41 17 0f bf e9 10 44 bf c5 39 07 be 90 3d da bf
       -0.5589486 -0.765883 -0.13205631 -1.7050037
0000b0 ea c4 45 bf 14 86 54 bf 17 c7 8a 3f 94 b5 0b bf
       -0.7725359 -0.83017087 1.0842007 -0.5457394
0000c0 f2 75 22 bd c3 a2 24 bf f9 ef c2 be a2 d9 0e bf
       -0.039663263 -0.64310855 -0.3807371 -0.5580083
0000d0 ec 31 40 bf fe 8e 2b bf 42 06 3f 3d d9 3f 28 be
       -0.75076175 -0.67015064 0.046636827 -0.16430606
0000e0 e5 4f d0 be e8 4b 4b bf cf 2d 4d bf aa d8 89 bd
       -0.40685955 -0.794127 -0.80148023 -0.067307785
0000f0 c7 3c a0 be a1 4c 86 bf 0e e8 5a 3e 80 d8 f1 3d
       -0.3129637 -1.0492135 0.21377584 0.11808872

StatefulPartitionedCall/sequential_6/dense_30/MatMul/ReadVariableOp/transpose f4 [64, 64]
000000 cf f5 12 3d a2 88 96 3c ae 70 78 bc 59 05 88 3d
       0.035878953 0.018375698 -0.015163584 0.06641645
000010 63 62 d7 3d 8b d3 23 be 4b 98 5b be 82 9b d6 be
       0.10516813 -0.15998666 -0.21444814 -0.41915518
000020 04 fd 6b 3e a1 fb 2a 3e 05 66 f1 bd f8 7d fa 3d
       0.23045737 0.16697551 -0.11787037 0.12231058
000030 79 24 ac be d6 fa 6e be ad 9b 9e 3d 3b 06 26 3e
       -0.33621576 -0.23337874 0.077445365 0.16213314
000040 ba 13 be bd f5 46 57 be d3 db 3d 3e 03 55 92 3d
       -0.09281106 -0.21023162 0.18540888 0.07145121
000050 af 21 dd 3c ad b2 0f 3e 72 66 23 3e 87 e6 10 be
       0.0269936 0.14033003 0.15957049 -0.14150439
000060 f8 14 bf be d8 19 0a be 61 f5 d7 be 8a e2 be bd
       -0.37320685 -0.13486421 -0.42179397 -0.09320553
000070 b6 6d 54 3e 9e fb 89 3d 25 4a 2c 3d a5 56 f9 3c
       0.20744976 0.06737445 0.042062897 0.030436823
000080 5d 03 52 be be 52 45 3e af 2b 29 3e ef 25 c5 3d
       -0.20509095 0.19269845 0.1652057 0.09626376
000090 61 1e 8b 3b fe bc 4d bb e7 e6 0c be 32 0e 13 3e
       0.004245565 -0.0031393166 -0.13759957 0.14360884
0000a0 01 24 2d be 82 06 39 be 12 69 99 bd f6 09 24 3d
       -0.16908266 -0.18068889 -0.07490744 0.040048562
0000b0 69 aa 5d 3d e7 ea e2 3c a9 4e 85 be 90 25 a6 3d
       0.054117594 0.0276999 -0.26036575 0.08112633
0000c0 cc 3c 53 3d 9a f2 10 be 73 59 b2 3d dc 18 1b be
       0.051571652 -0.14155045 0.08708467 -0.15146202
0000d0 c7 10 44 3d 09 6d 44 be 0e e0 9e 3d 65 e9 8c be
       0.047867563 -0.19182219 0.07757579 -0.27521816
0000e0 e5 63 4c be 8a 9d 59 3e c2 ac 58 3e 73 6d a6 be
       -0.19959982 0.21251503 0.21159652 -0.32505378
0000f0 23 9b 1b 3e a4 da 93 3d 9e 22 ac be 72 d9 07 be
       0.15195899 0.07219437 -0.3362016 -0.13266543
000100 01 ae f0 3d 12 0b 92 bd cc 01 08 3e e0 5a 6f 3e
       0.117519386 -0.07131018 0.13281935 0.2337451
000110 37 67 fe 3e e9 d8 01 be a2 ad ec bd 18 ca c2 bd
       0.49688122 -0.12680401 -0.11556555 -0.095112026
000120 a4 6a 2a 3d e6 9a a8 be 0c e6 46 be bf 0e 12 3e
       0.041605607 -0.32930678 -0.19423693 0.14263438
000130 ef e8 7d be 95 e1 c6 3d b0 89 6f bc c9 0f 10 bd
       -0.24795888 0.09710995 -0.01462023 -0.035171304
000140 a0 ce 0c be 1c 01 50 bc db 1a 4c be bb 54 b1 bb
       -0.13750696 -0.012695577 -0.1993212 -0.005411712
000150 9d db 52 be 45 2f ba 3d de 83 d1 bd 88 0d 29 be
       -0.20591588 0.09091047 -0.1023023 -0.16509068
000160 87 fd 15 3d b7 ef 8d be 1b d7 9a be 7b c6 4b bd
       0.036618736 -0.2772195 -0.30242237 -0.049749833
000170 4c 35 a2 3e 97 6c 0a bf 96 c2 db bc d0 af 47 be
       0.31681287 -0.54071945 -0.026826184 -0.19500661
000180 4a c2 91 be 3d 5a 42 3e e8 12 53 be 3f 57 ce bd
       -0.28468543 0.18979736 -0.20612681 -0.100752346
000190 8c 0f 10 be a1 92 af be f4 98 b1 bb 82 9b df 3d
       -0.1406843 -0.34291556 -0.0054198448 0.10918333
0001a0 25 88 d7 3c ea f0 15 be 29 2e a0 3d 14 47 41 bf
       0.026310036 -0.14642683 0.07821304 -0.7549908
0001b0 e8 77 e1 3d c4 ce 29 be 98 21 4b 3e 77 0b aa be
       0.110091984 -0.16582781 0.19837034 -0.33211872
0001c0 b1 40 c0 bc 70 e1 20 be 3e 66 89 bd 12 c3 e9 bc
       -0.023468347 -0.15710998 -0.06708954 -0.0285354
0001d0 1d f4 eb ba ac ea 35 be cd 31 3e be 9e 85 4f 3e
       -0.0018001829 -0.17765301 -0.18573685 0.20265815
0001e0 30 fa be be c0 ef 1e bd 09 bc 55 be 7c de 77 be
       -0.37300253 -0.038802862 -0.20872511 -0.24205965
0001f0 ab 3d e2 be 67 e2 2a be 31 d8 92 3e 74 b1 1a 3e
       -0.44187674 -0.16687928 0.28680566 0.15106755
000200 f3 25 d2 3e c4 47 aa bd f4 d9 78 3e dc 98 44 3e
       0.41044578 -0.083144695 0.24301893 0.19198936
000210 dc 9d 9c 3e 4f 78 b3 3b 62 a3 96 bc a0 de 6c 3e
       0.30589187 0.0054769884 -0.018388454 0.231318
000220 c9 7d 37 be f0 94 65 3e d5 35 d0 bd f2 aa 15 3e
       -0.17919077 0.22420096 -0.10166518 0.14615992
000230 7f e1 58 3e 59 a8 d9 be c2 f5 de be ef 6d 73 3e
       0.2117977 -0.42511252 -0.43546873 0.23772405
000240 31 65 b7 bd 2b b5 0f be be ef 89 bd 39 e5 4e 3c
       -0.089548476 -0.14033954 -0.0673518 0.012627893
000250 51 cb a1 be 67 8d 1f be 4b 43 15 3e ac 11 de 3c
       -0.3160043 -0.15581284 0.14576451 0.027108036
000260 69 db b7 3e 77 d5 17 be bd 83 fa 3d d1 bc cc 3d
       0.35909584 -0.14827524 0.12232158 0.09996951
000270 1a 2b 0c bd f9 23 51 be f1 0e 26 bc 46 c7 44 3e
       -0.034220792 -0.20423879 -0.010135398 0.19216642
000280 0e 60 1a be 56 4f 68 be b5 c8 4e 3e d0 f2 0e be
       -0.15075704 -0.22686514 0.20193751 -0.13959813
000290 37 6d 70 3d 6f b8 89 3e df cb 03 be 3b 98 61 3d
       0.058697905 0.26898524 -0.1287074 0.05507682
0002a0 50 38 cf bd 76 f3 4f 3e d1 94 38 bd ae bf 25 3e
       -0.10118163 0.20307717 -0.045063797 0.16186401
0002b0 f2 88 15 bc 0d 66 fc bd 91 ce 25 3e a0 74 b1 3d
       -0.009126889 -0.12324152 0.1619208 0.086648226
0002c0 01 29 7f bd 90 7a 61 bd 65 35 2b be d5 fe 22 bd
       -0.062294964 -0.055048525 -0.16719587 -0.039793808
0002d0 2d 1a 39 3e 27 ef 34 3e 39 70 1a bf 60 e0 00 bf
       0.18076392 0.17669354 -0.6032749 -0.5034237
0002e0 cf db 19 3e aa 79 8a bb 14 6b 3d 3d f2 5e 36 3f
       0.15025257 -0.0042259293 0.046244696 0.71238625
0002f0 6e a0 c3 3c a3 37 c9 3d dd ab 37 be ed 9b a8 be
       0.02388021 0.09825065 -0.17936654 -0.32931462
000300 c6 e7 ab 3b f2 3f 62 3e a4 68 95 be e1 62 45 be
       0.0052461354 0.22094706 -0.29181397 -0.19276
000310 8a 41 70 be 79 1a 2d be 53 93 08 be 2e 2b d1 3d
       -0.23462501 -0.1690463 -0.1333745 0.10213314
000320 01 0d 9d 3e bd 5b 14 be b4 05 0e 3e ba 92 78 bd
       0.30673984 -0.1448812 0.13869363 -0.060686804
000330 ac 1d 55 3e 9f 8e 44 3e 5f e6 79 3e 36 51 3a 3e
       0.208121 0.1919503 0.24404286 0.18195042
000340 f3 ae 46 be 6e 8d 30 3e 08 3f d9 3d 5f 5c be be
       -0.19402675 0.17241451 0.106077254 -0.3717985
000350 46 9e 81 3d df 68 b1 bc e8 62 1c bb 32 63 0c 3d
       0.063290164 -0.021656452 -0.0023862664 0.034274288
000360 c0 85 f7 3e 2e 61 f4 3d 08 94 b0 3e aa a8 cf bd
       0.4834423 0.11932598 0.3448794 -0.10139592
000370 ec db 20 3f 48 a4 65 3e b4 79 59 be 95 84 2a 3e
       0.62835574 0.2242595 -0.21237832 0.16652139
000380 6d 87 b3 3e 5e a3 40 3e 10 8e 83 3e 5d 94 54 be
       0.3506426 0.1881232 0.25694323 -0.20759721
000390 2d 7b 19 bd 03 9f 1a 3d 23 fe dc bc 50 0c 69 be
       -0.037470985 0.0377493 -0.02697665 -0.22758603
0003a0 0e 35 2f bd b8 94 0d be 1c 5e 5f 3e 1d 7f af 3e
       -0.042775206 -0.13826263 0.21813244 0.34276667
0003b0 a1 25 fd 3a 47 3a 2f be 6c 09 40 3e 10 1b 50 3e
       0.0019313582 -0.17112075 0.18753594 0.20322824
0003c0 01 08 af 3e ee b6 f4 3d 26 43 f6 bc bc 95 98 be
       0.34185794 0.119489536 -0.030061316 -0.29801738
0003d0 c6 7d 79 3d 4f cd 16 be f2 42 14 3f 55 6a 79 bc
       0.060910963 -0.14726757 0.5791465 -0.015223105
0003e0 d3 54 7d 3d 62 1b e6 bc c5 2c 17 bd db f8 d9 be
       0.061848473 -0.028089229 -0.03690793 -0.42572674
0003f0 68 b0 ce 3e ce 99 65 3d 7d bc 11 3d 2e f5 75 3d
       0.40368962 0.056054883 0.035580147 0.060048275

StatefulPartitionedCall/sequential_6/dense_30/MatMul_bias f4 [64]
000000 fe d5 72 3e 45 9c ae 3e d1 75 4d be 4a 9a 92 3f
       0.23714444 0.341036 -0.20064475 1.1453335
000010 8a 84 9f be 31 11 69 be a4 21 0f be f3 f0 25 bd
       -0.31155807 -0.22760464 -0.13977677 -0.04051299
000020 25 e6 8a be 19 00 3c bf 4e b7 34 be 7b d1 2a bf
       -0.2712871 -0.7343765 -0.1764805 -0.6672589
000030 f7 56 cc bd 33 b5 1d 3f 89 2a c0 3e fc be be 3c
       -0.09977525 0.61604613 0.37532452 0.023284428
000040 66 e1 99 3e 46 28 87 be f2 63 72 bd 01 eb 32 bf
       0.30054778 -0.26397914 -0.059177347 -0.6988984
000050 87 50 2c be 6a 05 95 be 10 31 77 3f 56 17 31 bf
       -0.16827594 -0.29105693 0.9655924 -0.6917623
000060 38 f8 92 be da 41 00 bf f6 2c 42 bf f8 02 05 bf
       -0.28705 -0.5010048 -0.75849855 -0.51957655
000070 91 ea d1 3e 5a 8d 0a bf ed 2d 7d be 98 51 0e bf
       0.40999272 -0.54121935 -0.2472455 -0.5559325
000080 51 cf 08 be f6 29 64 be 1e a7 35 be 72 35 87 3f
       -0.13360335 -0.22281632 -0.17739531 1.0563185
000090 f7 ad b0 3f b1 31 d7 be df e0 1b bf 75 20 45 bf
       1.380309 -0.420301 -0.6089 -0.7700265
0000a0 b2 22 cc bd 05 b6 81 3e 3f 77 4b 3c 07 7d e5 bd
       -0.09967555 0.25334182 0.012418567 -0.11205488
0000b0 63 75 87 3e 59 e9 19 bd 8f e8 86 be 02 9d 64 3f
       0.26456746 -0.037576053 -0.26349303 0.89302075
0000c0 e5 56 9f 3d c0 fd f6 3e 70 67 62 be c9 31 db 3e
       0.07780246 0.4824047 -0.22109771 0.4281142
0000d0 1e 33 3f be 63 29 06 3e 90 07 47 be f6 30 33 bf
       -0.18671843 0.13101725 -0.19436479 -0.69996583
0000e0 ed 66 2e be 70 ab 6c be ce 1d 25 bf 9d a5 23 bf
       -0.1703145 -0.23112273 -0.64498603 -0.6392458
0000f0 31 a3 79 3c f5 5f 52 bf 7b 00 cb be f6 71 a0 3f
       0.015236662 -0.8217767 -0.39648804 1.2534778

StatefulPartitionedCall/sequential_6/dense_31/MatMul/ReadVariableOp/transpose f4 [1, 64]
000000 7b 6e ad bc 22 34 25 be 15 25 e1 3d 4e 21 72 3e
       -0.021170845 -0.16133168 0.10993401 0.23645517
000010 6b 42 99 3b ba 3a ff 3b a6 91 6b bb a6 64 61 bb
       0.004677107 0.007788983 -0.0035944968 -0.0034392267
000020 d6 69 c1 3c 50 35 b3 bd 36 05 98 3e a5 ad 95 be
       0.023610037 -0.08750403 0.29691476 -0.29234043
000030 bd 39 bb bd 88 c4 0e 3e 25 b5 e3 3c a9 f5 e8 bd
       -0.09141872 0.13942158 0.027796337 -0.11374981
000040 9b 15 d3 be 13 c1 cc 3d 1a af 55 be 4d 5c 1a be
       -0.4122742 0.099977635 -0.20867577 -0.15074272
000050 d1 c1 16 be 03 a6 2e bd c6 e7 c2 3e 81 e7 0f 3d
       -0.14722373 -0.04263879 0.38067454 0.03513289
000060 7b 05 0c 3c aa c2 9f 3e a1 8a 5e 3b 3c 65 7e bc
       0.0085462285 0.31203204 0.003395714 -0.015527066
000070 1f 9a c4 be 3e 3b 71 be 2c 45 e6 3d b7 e0 7f 3e
       -0.38398835 -0.23557755 0.11243662 0.24988066
000080 1c e0 8f bd 7e 24 1a 3d a8 1e 8e 3e 21 2a 86 3e
       -0.07025167 0.037632458 0.27757764 0.26204017
000090 dc aa 76 3e 7c f6 58 bb 47 0f 33 be 63 b2 60 be
       0.24088615 -0.00331059 -0.17486297 -0.21943049
0000a0 f6 9e c1 be 17 aa a1 bb 9f 5a 8c 3d e6 72 97 be
       -0.3781659 -0.0049336064 0.06853222 -0.29579848
0000b0 0c a5 95 be c9 5b 19 3d 14 89 a1 3e 98 8c 1e 3e
       -0.29227483 0.03744105 0.31549895 0.1548332
0000c0 4a f3 a0 bd 37 63 19 bd 65 1d 27 3e d6 1e bb bd
       -0.07858904 -0.037448134 0.16319807 -0.09136741
0000d0 06 09 a8 bd 1e 60 87 be 5d a2 94 3e 56 9b 08 3c
       -0.08204846 -0.2644052 0.29030123 0.008337816
0000e0 82 ac 7c 3e 8d 6a 81 be 47 c8 9e be 23 d1 5c be
       0.24675182 -0.25276604 -0.31012174 -0.21564154
0000f0 b4 ef 8e be 46 34 13 be d5 54 ae 3c e6 b0 d5 3e
       -0.27917254 -0.1437541 0.021280685 0.41736525
